…
    (0): TransformerConv(9, 256, heads=32)
    (1): TransformerConv(256, 256, heads=32)
    (2): TransformerConv(256, 256, heads=32)
    (3): TransformerConv(256, 256, heads=32)
    (4): TransformerConv(256, 256, heads=32)
    (5): TransformerConv(256, 256, heads=32)
    (6): TransformerConv(256, 256, heads=32)
    (7): TransformerConv(256, 256, heads=32)
    (8): TransformerConv(256, 256, heads=32)
    (9): TransformerConv(256, 256, heads=32)
    (10): TransformerConv(256, 256, heads=32)
  )
  (lns): ModuleList(
    5.12 k, 0.01% Params, 0 MACs, 0.00% MACs, 530.0 us, 0.49% latency, 155.84 GFLOPS, 
    (0): LayerNorm(512, 0.00% Params, 0 MACs, 0.00% MACs, 71.76 us, 0.07% latency, 127.89 GFLOPS, (256,), eps=1e-05, elementwise_affine=True)
    (1): LayerNorm(512, 0.00% Params, 0 MACs, 0.00% MACs, 57.46 us, 0.05% latency, 159.72 GFLOPS, (256,), eps=1e-05, elementwise_affine=True)
    (2): LayerNorm(512, 0.00% Params, 0 MACs, 0.00% MACs, 58.41 us, 0.05% latency, 157.12 GFLOPS, (256,), eps=1e-05, elementwise_affine=True)
    (3): LayerNorm(512, 0.00% Params, 0 MACs, 0.00% MACs, 59.13 us, 0.06% latency, 155.22 GFLOPS, (256,), eps=1e-05, elementwise_affine=True)
    (4): LayerNorm(512, 0.00% Params, 0 MACs, 0.00% MACs, 56.51 us, 0.05% latency, 162.42 GFLOPS, (256,), eps=1e-05, elementwise_affine=True)
    (5): LayerNorm(512, 0.00% Params, 0 MACs, 0.00% MACs, 58.17 us, 0.05% latency, 157.76 GFLOPS, (256,), eps=1e-05, elementwise_affine=True)
    (6): LayerNorm(512, 0.00% Params, 0 MACs, 0.00% MACs, 56.98 us, 0.05% latency, 161.06 GFLOPS, (256,), eps=1e-05, elementwise_affine=True)
    (7): LayerNorm(512, 0.00% Params, 0 MACs, 0.00% MACs, 55.55 us, 0.05% latency, 165.21 GFLOPS, (256,), eps=1e-05, elementwise_affine=True)
    (8): LayerNorm(512, 0.00% Params, 0 MACs, 0.00% MACs, 56.03 us, 0.05% latency, 163.8 GFLOPS, (256,), eps=1e-05, elementwise_affine=True)
    (9): LayerNorm(512, 0.00% Params, 0 MACs, 0.00% MACs, 0, 0.00% latency, 0.0 FLOPS, (256,), eps=1e-05, elementwise_affine=True)
  )
  (conv_dropout): Dropout(0, 0.00% Params, 0 MACs, 0.00% MACs, 216.72 us, 0.20% latency, 0.0 FLOPS, p=0.0, inplace=False)
  (ReLU): ReLU(0, 0.00% Params, 0 MACs, 0.00% MACs, 430.11 us, 0.40% latency, 42.68 GFLOPS, )
  (post_mp): Sequential(
    257, 0.00% Params, 131.07 KMACs, 0.00% MACs, 109.67 us, 0.10% latency, 2.39 GFLOPS, 
    (0): Linear(257, 0.00% Params, 131.07 KMACs, 0.00% MACs, 72.96 us, 0.07% latency, 3.59 GFLOPS, in_features=256, out_features=1, bias=True)
  )
)









-------------------------------------------------------  ------------  ------------  ------------  ------------  ------------  ------------  ------------  ------------  ------------  ------------  
                                                   Name    Self CPU %      Self CPU   CPU total %     CPU total  CPU time avg     Self CUDA   Self CUDA %    CUDA total  CUDA time avg    # of Calls  
…
